# YOLOv5 🚀 by Ultralytics, GPL-3.0 license

# Parameters
nc: 1  # number of classes
# depth_multiple: 0.67  # model depth multiple
# width_multiple: 0.50  # layer channel multiple

# depth_multiple: 0.50  # model depth multiple
# width_multiple: 0.67  # layer channel multiple

depth_multiple: 1  # model depth multiple
width_multiple: 1  # layer channel multiple

# depth_multiple: 0.33  # model depth multiple
# width_multiple: 0.50  # layer channel multiple

# anchors
anchors:
  - [ 10,13, 16,30, 33,23 ]  # P3/8
  - [ 30,61, 62,45, 59,119 ]  # P4/16
  - [ 116,90, 156,198, 373,326 ]  # P5/32

# custom backbone
backbone:
  # [from, number, module, args]
  [ [ -1, 1, conv_bn_relu_maxpool, [ 32 ] ],    # 0-P2/4
    [ -1, 1, Shuffle_Block, [ 116, 2 ] ], # 1-P3/8
    [ -1, 3, Shuffle_Block, [ 116, 1 ] ], # 2
    [ -1, 1, Shuffle_Block, [ 232, 2 ] ], # 3-P4/16
    [ -1, 7, Shuffle_Block, [ 232, 1 ] ], # 4
    [ -1, 1, Shuffle_Block, [ 464, 2 ] ], # 5-P5/32
    [ -1, 3, Shuffle_Block, [ 464, 1 ] ], # 6
  ]

# YOLOv5 head
head:
  [ [ -1, 1, GSConv, [ 128, 1, 1 ] ],
    [ -1, 1, CARAFE, [ 128, 3, 2 ] ],
    [ [ -1, 4 ], 1, Concat, [ 1 ] ],  # cat backbone P4
    [ -1, 1, C3Ghost, [ 128, False ] ],  # 10

    [ -1, 1, GSConv, [ 64, 1, 1 ] ],
    [ -1, 1, CARAFE, [ 64, 3, 2 ] ],
    [ [ -1, 2 ], 1, Concat, [ 1 ] ],  # cat backbone P3
    [ -1, 1, C3Ghost, [ 64, False ] ],  # 14 (P3/8-small)
    [ -1, 1, SimAM, [ 64 ] ],          # 15

    [ -2, 1, GSConv, [ 64, 3, 2 ] ],   # 16
    [ [ -1, 11 ], 1, Concat, [ 1 ] ],  # 17 cat head P4
    [ -1, 1, C3Ghost, [ 128, False ] ],  # 18 (P4/16-medium)
    [ -1, 1, SimAM, [ 128 ] ],         # 19

    [ -2, 1, GSConv, [ 128, 3, 2 ] ],  # 20
    [ [ -1, 7 ], 1, Concat, [ 1 ] ],  # 21 cat head P5
    [ -1, 1, C3Ghost, [ 256, False ] ],  # 22 (P5/32-large)
    [ -1, 1, SimAM, [ 256 ] ],         # 23

    [ [ 15, 19, 23 ], 1, Detect, [ nc, anchors ] ],  # Detect(P3, P4, P5)
  ]
